Diabetes-Prediction-Model-eda-svm/model.tflite (tflite, 39944 bytes, 5 tensors)

arith.constant f4 [1, 64]
0	0x3da7140c	0.081581205
1	0xbc5a81cc	-0.01333661
2	0x3df7eae4	0.12105349
3	0x3e277068	0.16351473
4	0x3d35a865	0.044350047
5	0x3e8f41ac	0.2797979
6	0x3d57ce64	0.052687064
7	0x3e3ef901	0.18649675
8	0xbd729e93	-0.05923326
9	0xbe7ff3a3	-0.24995284
10	0xbe13c283	-0.14429669
11	0xbe7425c7	-0.23842536
12	0xbd3cc975	-0.046090562
13	0xbd0b910e	-0.03407388
14	0x3e830852	0.25592285
15	0xbed5d6a6	-0.41765326
16	0x3e885039	0.26623705
17	0xbe48ab37	-0.19596563
18	0x3e83cc00	0.25741577
19	0xbe0d35b9	-0.13790025
20	0x3ceea4ec	0.029131375
21	0xbb68e60f	-0.0035537516
22	0x3e8c3b80	0.27389145
23	0x3e2785ac	0.16359586
24	0x3ec6ef63	0.38854513
25	0xbe87c3dd	-0.2651662
26	0xbbd4e26a	-0.006496717
27	0xbe97fd63	-0.29685506
28	0x3e00fa2e	0.12595436
29	0x3e8a955d	0.2706708
30	0x3e6a43d1	0.22877432
31	0xbe437ed5	-0.19091351
32	0xbe8993e6	-0.2687065
33	0x3dafa7d0	0.085769296
34	0x3e72284a	0.23648182
35	0x3cf9bbe0	0.030485094
36	0xbd8d4a5e	-0.0689895
37	0xbddbb661	-0.107281454
38	0x3e4d5638	0.20052421
39	0x3c2505ac	0.010072153
40	0x3e97156a	0.29508525
41	0xbdbb3161	-0.09140278
42	0xbe83ab02	-0.25716406
43	0x3e653b98	0.22386014
44	0x3bb16f94	0.0054149125
45	0x3e04b0ae	0.12958023
46	0x3e041df1	0.12902047
47	0xbdb883c4	-0.09009507
48	0xbdedd269	-0.11612398
49	0xbd9ce25b	-0.076603614
50	0xbd2429c1	-0.040078882
51	0x3e265942	0.16244987
52	0x3e26736c	0.16254967
53	0xbe27a0f8	-0.16369998
54	0x3e6a1b4b	0.22861974
55	0xbe448182	-0.19190028
56	0x3ddf3990	0.10899651
57	0xbe927ef1	-0.28612474
58	0xbdc1d90c	-0.094652265
59	0x3c94b299	0.018151568
60	0x3d960f91	0.07327188
61	0x3e5818ae	0.21103165
62	0xb9d87c0a	-0.00041291147
63	0x3e9602de	0.29299062

arith.constant1 f4 [64, 128]
0	0x3dcbd5eb	0.09952911
1	0x3e299a9d	0.16562887
2	0x3c9d2cb0	0.019186348
3	0x3d9dd06f	0.07705771
4	0xbdd0e133	-0.10199203
5	0xbe241580	-0.16023827
6	0xbe2221fc	-0.15833277
7	0xbd81f04b	-0.0634466
8	0xbd93b184	-0.07211593
9	0xbcfb6008	-0.03068544
10	0xbdad211f	-0.08453583
11	0xbb52a1c0	-0.0032139868
12	0x3dbaf2c2	0.09128334
13	0xbc8b59f8	-0.017010674
14	0xbe0bca7c	-0.1365146
15	0x3df6642e	0.120308265
16	0x3e0d58dd	0.1380343
17	0x3e226bdd	0.15861459
18	0x3e1bedb7	0.152274
19	0x3de6d882	0.11271764
20	0x3d24f174	0.04026933
21	0x3e03b457	0.12861763
22	0xbd8bd2f6	-0.06827347
23	0xbdc42c3a	-0.09578748
24	0xbc9d3c38	-0.019193754
25	0x3bcfd9c0	0.0063430965
26	0x3ceaffd8	0.028686449
27	0x3d90a558	0.07062787
28	0xbde5b415	-0.112159885
29	0xbd96e4d3	-0.073678635
30	0x3c7ab840	0.015302718
31	0xbdbfe961	-0.09370685
32	0x3d4a9c0c	0.049465224
33	0xbe15814b	-0.14600103
34	0xbdbfb1ac	-0.0936006
35	0xbddf3f5a	-0.10900755
36	0x3df0d472	0.11759271
37	0x3d00af2c	0.031417057
38	0x3e090533	0.1338089
39	0xbddbc5ca	-0.10731085
40	0x3dcfaffe	0.1014099
41	0xbdafd958	-0.08586377
42	0xbcde21a0	-0.027115643
43	0xbd0ddb79	-0.034633134
44	0x3da6e24e	0.08148633
45	0x3db6afee	0.08920275
46	0xbddf7cae	-0.10912453
47	0xbd8d7175	-0.06906406
48	0xbe0ec106	-0.1394082
49	0xbe02acda	-0.1276125
50	0xbdfc6830	-0.1232456
51	0xbda2396e	-0.0792111
52	0xbd2cff78	-0.04223582
53	0x3e0438b5	0.12912257
54	0x3e11db81	0.1424389
55	0xbd8b4edd	-0.06802151
56	0xbe19768b	-0.14986627
57	0x3bfa3280	0.0076354146
58	0xbd7f9fe2	-0.062408336
59	0xbe053995	-0.13010247
60	0xbb422240	-0.0029622465
61	0x3da06e4a	0.07833536
62	0x3e080c3d	0.13285919
63	0xbd50bb87	-0.05096009
64	0xbd90d7cc	-0.0707241
65	0xbe08349e	-0.13301322
66	0x3df36096	0.11883657
67	0xbdb3ce66	-0.08779602
68	0xbda9edfb	-0.08297344
69	0x3e21c4b3	0.15797691
70	0xbe025522	-0.12727788
71	0xbdfb1122	-0.12259127
72	0xbd7b5202	-0.061357506
73	0x3e33a663	0.1754394
74	0xbe3194f7	-0.17341982
75	0x3d86a5fa	0.06574626
76	0xbdf4e6b7	-0.11958068
77	0x3dcf54b2	0.10123576
78	0xbd6ce2f0	-0.057833612
79	0xbcbf08d8	-0.023319647
80	0x3e25193d	0.16122909
81	0x3d829ac6	0.06377177
82	0x3e2f7b33	0.1713684
83	0x3d5e7b3c	0.054316744
84	0x3b87f652	0.0041492367
85	0xbdee64f9	-0.11640353
86	0x3e249459	0.16072215
87	0x3d0bdccc	0.034146115
88	0xbddcd667	-0.107830815
89	0x3de6b412	0.112648144
90	0x3d98b5f2	0.07456578
91	0x3de43f94	0.11144939
92	0xbe343b26	-0.17600688
93	0xbd3c9805	-0.046043415
94	0xbca49fd0	-0.020095736
95	0x3df799ea	0.12089904
96	0xbe1edaba	-0.15513125
97	0x3bd3bd60	0.0064617842
98	0xbe05df3c	-0.13073438
99	0xbd91ca77	-0.07118695
100	0x3d85d134	0.06534043
101	0xbe1e476e	-0.15456936
102	0xbe2d45e1	-0.16921188
103	0x3d534da0	0.0515877
104	0xbdd60ebe	-0.104520306
105	0xbe05c0fa	-0.13061896
106	0xbe1f00a1	-0.15527584
107	0x3cf3e78e	0.0297735
108	0x3dd38416	0.10327928
109	0x3ca15ec8	0.019698516
110	0x3ddca79e	0.10774158
111	0x3cfcba10	0.03085044
112	0xbe0c709a	-0.13714829
113	0xbcf64551	-0.03006235
114	0x3e117b7d	0.14207263
115	0x3d98affa	0.0745544
116	0xbd9c91a2	-0.07644965
117	0x3c8bc4d8	0.017061636
118	0x3c9a77b8	0.018855914
119	0xbe00f33f	-0.12592791
120	0xbe1840a2	-0.14868405
121	0xbdc0235d	-0.09381745
122	0x3e0ae5d1	0.1356423
123	0xbdaa0491	-0.08301652
124	0x3dee1ae2	0.11626221
125	0x3d97f69a	0.074200824
126	0xbdcb7b90	-0.09935677
127	0x3c9ddbb0	0.019269794
128	0xbe0bf034	-0.13665849
129	0x3dbd7daa	0.09252484
130	0x3d1053cc	0.035236165
131	0xbb60fbfd	-0.0034329884
132	0xbd2833a6	-0.04106488
133	0x3dce5535	0.10074846
134	0xbd6ca746	-0.057776712
135	0xbe44f395	-0.19233544
136	0x3e1233d0	0.14277577
137	0x3b14a700	0.0022682548
138	0xbd86cd29	-0.065821
139	0x3d470a40	0.04859376
140	0x3e06e513	0.13173322
141	0x3ce00bd0	0.027349383
142	0xbe31ff19	-0.17382468
143	0xbe2186aa	-0.15774027
144	0xbdb0a99f	-0.08626103
145	0xbe15d833	-0.14633255
146	0xbe3000b3	-0.17187767
147	0x3d8d6494	0.069039494
148	0xbdf84694	-0.12122837
149	0xbd2874ca	-0.041127004
150	0xbdb13186	-0.08652024
151	0xbe1b4bd4	-0.15165645
152	0xb995ec9f	-0.0002859579
153	0xbc1f6de0	-0.009730786
154	0x3c0ed7b0	0.008718416
155	0xbda6edfa	-0.08150859
156	0x3d869bf6	0.06572716
157	0xbd01537c	-0.031573758
158	0x3e3043c7	0.17213355
159	0xbd048a58	-0.032358497
160	0xbd7e9d48	-0.062161714
161	0xbd884d55	-0.06655375
162	0x3dfc7556	0.123270676
163	0xbd349064	-0.044083014
164	0x3e0e2816	0.13882479
165	0x3d242310	0.0400725
166	0x3e2489dd	0.16068216
167	0x3d9d1d72	0.07671632
168	0x3c8e6b50	0.017385155
169	0xbcaf4c4a	-0.021398682
170	0xbdaf37bd	-0.08555553
171	0xbe43d16e	-0.1912286
172	0x3d484f4c	0.04890375
173	0xbe23bd6c	-0.15990227
174	0xbe18428e	-0.14869139
175	0xbce8c728	-0.028415278
176	0x3cbf7045	0.023368964
177	0xbd289de4	-0.0411662
178	0xbe2a5804	-0.16635138
179	0xbe45c628	-0.19313872
180	0x3e0baea7	0.13640843
181	0xbe22e9b9	-0.1590947
182	0xbd8a89d3	-0.06764569
183	0x3d61d621	0.05513585
184	0xbe0216b8	-0.12703979
185	0xbc8a9b50	-0.016919762
186	0xbe470b6e	-0.19437954
187	0xbe10080a	-0.14065567
188	0xbe3e5a20	-0.18589067
189	0x3c3815b0	0.011235639
190	0x3d7a73a0	0.061145425
191	0xbe09f56e	-0.1347253
192	0xbbfbf540	-0.007689148
193	0x3dd2b8ea	0.10289176
194	0x3c6c6b90	0.014429942
195	0xbe26d5de	-0.16292521
196	0xbdf69e68	-0.12041932
197	0xbd04bed1	-0.03240854
198	0xbe149af6	-0.14512238
199	0xbdef5886	-0.116868064
200	0xbde31641	-0.11088229
201	0x3d276d8c	0.040875956
202	0xbe1d64e5	-0.1537052
203	0x3d31f0f8	0.043442696
204	0x3da78ffa	0.08181758
205	0xbe0c18b0	-0.13681293
206	0x3d7f7338	0.06236574
207	0xbd84a27c	-0.06476304
208	0x3cc586b8	0.02411209
209	0x3e1538fd	0.1457252
210	0x3d14ea40	0.03635621
211	0xbd429248	-0.047502786
212	0x3e1366f3	0.14394741
213	0x3d64d0c2	0.05586315
214	0xbd01c798	-0.031684488
215	0x3dfbe027	0.12298613
216	0x3cde5e28	0.027144507
217	0xbe39b5e1	-0.18135788
218	0x3cc5cec0	0.024146438
219	0xbcc850b8	-0.024452552
220	0xbdcb3a6d	-0.09923253
221	0x3ce72518	0.02821593
222	0xbe29bc6b	-0.16575782
223	0xbda90602	-0.08253099
224	0xbdf7a306	-0.12091641
225	0xbe33dff5	-0.17565902
226	0xbe45b572	-0.19307497
227	0x3d72b779	0.059257004
228	0x3e0f54e7	0.13997231
229	0x3d768c14	0.060192183
230	0x3dd79239	0.10525937
231	0x3d3db3c8	0.04631403
232	0xbdba4945	-0.09096006
233	0x3d73ca2d	0.05951898
234	0x3dfb8e1a	0.12282963
235	0x3d1cc596	0.03827437
236	0xbdfbffa0	-0.12304616
237	0xbd0ea078	-0.034821004
238	0xbe005316	-0.12531695
239	0x3e1dbc01	0.15403749
240	0xbaf2b000	-0.0018515587
241	0xbd4b5ea7	-0.049650814
242	0xbb470040	-0.003036514
243	0xbcbff2ee	-0.023431268
244	0xbc795d8d	-0.015220058
245	0x3e1a888f	0.15091155
246	0x3cf9071d	0.0303989
247	0xbe135760	-0.143888
248	0xbe04a6a6	-0.12954196
249	0xbdb645c1	-0.08900023
250	0xbe0bf1f1	-0.13666512
251	0x3cea0dd8	0.028571054
252	0xbe1d5cef	-0.15367483
253	0xbe09f39e	-0.13471839
254	0x3e12a4bd	0.14320655
255	0xbd9b23c7	-0.07575183

sequential_1/dense_1_2/Add/ReadVariableOp f4 [64]
0	0xbb9f1f94	-0.0048560593
1	0xbce5a4bc	-0.028032653
2	0xbc0e119c	-0.008671191
3	0xbf72c8c1	-0.94837576
4	0xbf62cb2f	-0.88591284
5	0xbf715083	-0.94263476
6	0xbf4dc374	-0.8037636
7	0xbcc6a8f6	-0.024250489
8	0x3f4b5ea8	0.7944131
9	0xbaaceb38	-0.0013192659
10	0x3f3f5aca	0.7474791
11	0xbba15878	-0.0049238764
12	0x3f67e48b	0.90583104
13	0xbba0e4da	-0.0049100937
14	0x00000000	0.0
15	0x3ec92fa6	0.39294165
16	0xbd157fdb	-0.036498886
17	0x00000000	0.0
18	0xbda6fdd6	-0.08153884
19	0x3f824b35	1.0179201
20	0xbc8615aa	-0.016367752
21	0xbceca600	-0.028887749
22	0x00000000	0.0
23	0xbf6b3e38	-0.91891813
24	0xbf74c55a	-0.95613635
25	0x3f28d1c6	0.6594509
26	0x3de29733	0.11063995
27	0x3f7358d3	0.9505741
28	0xbc94322c	-0.01809033
29	0xbabd459c	-0.0014440301
30	0xbf714010	-0.94238377
31	0x3ed169d7	0.40901062
32	0x3e3d4c0e	0.18486044
33	0xbf6effe3	-0.933592
34	0xbf7756ab	-0.9661662
35	0x00000000	0.0
36	0x00000000	0.0
37	0x3f6efe87	0.9335713
38	0x00000000	0.0
39	0xbdc8758e	-0.09788047
40	0xbc27e3a1	-0.010247142
41	0x3f6927ea	0.9107653
42	0x3f43cf96	0.76488626
43	0xbd25b315	-0.04045399
44	0xbc3c6af1	-0.011500106
45	0xbc29cd1d	-0.010363844
46	0xbd229483	-0.039692413
47	0x3f6d1c5a	0.92621386
48	0xbca615eb	-0.020274123
49	0x3f684db5	0.9074357
50	0x3f6947e7	0.9112534
51	0x00000000	0.0
52	0xbf5bec1f	-0.8590717
53	0x3f71ae7b	0.9440686
54	0xbf73c8be	-0.95228183
55	0x3f73ed5d	0.9528406
56	0xbc1ec873	-0.0096913455
57	0xbc9b90a3	-0.018989867
58	0x3f72e3b7	0.94878715
59	0xbd6e770b	-0.058218997
60	0xbc575967	-0.013143874
61	0xbc2d6688	-0.010583527
62	0xbda1a212	-0.078922406
63	0x00000000	0.0

sequential_1/dense_1/Add/ReadVariableOp f4 [128]
0	0x3ed61147	0.41810057
1	0x3dc9b027	0.098480515
2	0xbef502cd	-0.478537
3	0x3fac7780	1.3473969
4	0x3f77483d	0.965946
5	0x3ebd9e2a	0.37034732
6	0xbf001515	-0.5003217
7	0xbf5b50cb	-0.85670155
8	0x3f5f7dfc	0.8730161
9	0x00000000	0.0
10	0x3f7cbe2f	0.987277
11	0x3f33afe5	0.7019027
12	0x00000000	0.0
13	0x00000000	0.0
14	0xbc292e50	-0.010325983
15	0x00000000	0.0
16	0x00000000	0.0
17	0x00000000	0.0
18	0xbe58b353	-0.21162157
19	0x00000000	0.0
20	0x00000000	0.0
21	0x3f2ca2a4	0.6743567
22	0xbf827664	-1.019238
23	0x00000000	0.0
24	0xbf3c800f	-0.736329
25	0x00000000	0.0
26	0x3e578482	0.21046641
27	0xbbee4177	-0.0072709876
28	0x3ec71457	0.38882706
29	0xbc682d52	-0.014170961
30	0x3e34928d	0.1763403
31	0x00000000	0.0
32	0x00000000	0.0
33	0xbf8f1a61	-1.1179925
34	0x00000000	0.0
35	0x3f5b627b	0.85697144
36	0x3f814760	1.0099907
37	0xbe2ec6b6	-0.1706799
38	0x00000000	0.0
39	0xbf5ed7ec	-0.8704822
40	0x3eb6b38f	0.35683867
41	0x3f7fd6c4	0.9993708
42	0x00000000	0.0
43	0x3f6debbd	0.92937833
44	0x00000000	0.0
45	0x00000000	0.0
46	0x3f895082	1.0727694
47	0x00000000	0.0
48	0xbe8314b2	-0.25601727
49	0x3f7a4bf0	0.9777212
50	0x3f4c2134	0.79738164
51	0xbf2d70bd	-0.6775015
52	0x00000000	0.0
53	0x3ed78424	0.42093003
54	0x00000000	0.0
55	0xbf6e2505	-0.9302524
56	0x00000000	0.0
57	0x00000000	0.0
58	0xbf1a5b90	-0.60295963
59	0xbf80dcf5	-1.0067431
60	0xbe2c66d8	-0.16836107
61	0x00000000	0.0
62	0x00000000	0.0
63	0x3f3a2313	0.7270977
64	0x00000000	0.0
65	0x00000000	0.0
66	0xbbec5482	-0.0072122226
67	0x00000000	0.0
68	0x3d023128	0.03178516
69	0x3f269d8f	0.65084165
70	0xbf577696	-0.8416532
71	0x00000000	0.0
72	0x00000000	0.0
73	0x00000000	0.0
74	0xbf864fef	-1.0493144
75	0xbced60f0	-0.028976887
76	0x00000000	0.0
77	0x3f73a460	0.9517269
78	0x00000000	0.0
79	0xbf3b61d8	-0.7319617
80	0x00000000	0.0
81	0x00000000	0.0
82	0x00000000	0.0
83	0x3de6f5d2	0.11277355
84	0xbf8cd586	-1.1002662
85	0x3f70c385	0.9404834
86	0xbbee1d47	-0.0072666737
87	0x3f0e07f4	0.55480886
88	0x00000000	0.0
89	0xbf301def	-0.68795675
90	0x00000000	0.0
91	0x3f8599e2	1.0437586
92	0xbf8dafef	-1.1069316
93	0xbd36ee34	-0.044660762
94	0xbf80ea2b	-1.0071462
95	0x00000000	0.0
96	0x3f69e951	0.9137164
97	0xbf00e4de	-0.50349224
98	0x3f77c4d2	0.967847
99	0xbf819972	-1.0124953
100	0x3e04d6b1	0.12972523
101	0x00000000	0.0
102	0x3f86fcaa	1.0545857
103	0x00000000	0.0
104	0x00000000	0.0
105	0xbf2ba954	-0.6705525
106	0x3f16ae1a	0.5885941
107	0xbf84f6fb	-1.0387872
108	0x3fbbb4d2	1.4664557
109	0xbf747e2b	-0.9550502
110	0x00000000	0.0
111	0xbf91bb92	-1.1385367
112	0x00000000	0.0
113	0x3f241775	0.6409829
114	0x00000000	0.0
115	0xbf952500	-1.1651917
116	0xbf12c35e	-0.57329357
117	0x00000000	0.0
118	0xbf2840f8	-0.65724134
119	0x3efbd81a	0.4918831
120	0x3f13ba8b	0.57706517
121	0x00000000	0.0
122	0x3f997e14	1.1991601
123	0x00000000	0.0
124	0x3e87c391	0.26516393
125	0xbf444c5b	-0.7667901
126	0x00000000	0.0
127	0x00000000	0.0

sequential_1/dense_1/MatMul f4 [128, 8]
0	0x3e6ac62f	0.22927164
1	0xbe821bb3	-0.25411758
2	0xbd4c5cca	-0.049893178
3	0xbdbe812f	-0.093019836
4	0xbe8ff8f5	-0.28119627
5	0x3e16adbf	0.14714716
6	0xbc88e8be	-0.016712543
7	0x3b77a11c	0.0037785238
8	0x3e3e4157	0.18579613
9	0xbc3ade36	-0.011405518
10	0xbdc656d9	-0.096845336
11	0xbdd71036	-0.10501139
12	0x3de8b7c3	0.11363175
13	0x3d4e5f70	0.050383985
14	0xbd9a372c	-0.075300545
15	0xbd0238a1	-0.031792287
16	0x3e262fd7	0.16229187
17	0x3db4f866	0.08836441
18	0xbedb100a	-0.42785674
19	0xbea256f7	-0.31706974
20	0xbddd5be2	-0.10808541
21	0x3e1fb933	0.15597992
22	0x3eb6171e	0.35564512
23	0xbd922bbf	-0.0713725
24	0xbe21ff9e	-0.15820166
25	0xbdd74110	-0.105104566
26	0xbebfd0f9	-0.3746412
27	0xbed896af	-0.42302462
28	0x3e942d47	0.28940794
29	0x3e110c94	0.14164954
30	0x3be5614b	0.0070001236
31	0x3c58a4b6	0.013222864
32	0x3d7c2f52	0.061568566
33	0x3e208277	0.15674768
34	0x3c0b1420	0.008488685
35	0xbe0dc01e	-0.13842818
36	0xbe8d5e99	-0.27611235
37	0x3d78676d	0.06064551
38	0xbe9eb274	-0.30995524
39	0xbd00bb34	-0.03142853
40	0x3df1b6fd	0.1180248
41	0x3d74adb0	0.059735954
42	0x3d05dfa5	0.032683987
43	0xbdef5ad0	-0.11687243
44	0x3eb3a979	0.35090235
45	0x3d96631f	0.073431246
46	0x3db26e64	0.087124616
47	0xbdc23cf4	-0.09484282
48	0x3dd483bc	0.10376689
49	0xbc395b66	-0.011313295
50	0x3efeba65	0.49751583
51	0x3e12dd50	0.14342237
52	0xbdfc6442	-0.1232381
53	0xbe8c5e36	-0.27415627
54	0xbe0e838d	-0.1391737
55	0x3cce8db2	0.02521405
56	0x3e4f5008	0.20245373
57	0x3d93b8b0	0.07212961
58	0x3e68f0c9	0.22748102
59	0xbdeb1239	-0.11478085
60	0xbe9df5e3	-0.3085166
61	0xbe36a56a	-0.17836538
62	0x3e2745d6	0.16335234
63	0x3cfe3b9d	0.031034285
64	0xbe4f0245	-0.2021571
65	0x3dc4fd80	0.09618664
66	0xbe73f8b5	-0.23825343
67	0xbe1caa39	-0.1529931
68	0xbdc98c85	-0.09841255
69	0x3dc749d0	0.097308755
70	0xbe5c6dad	-0.21526213
71	0xbd175a45	-0.036951322
72	0x3e3442fd	0.17603679
73	0x3d583bd4	0.05279143
74	0xbdddd2b2	-0.108312026
75	0xbdc87179	-0.09787268
76	0xbbf3c240	-0.007438928
77	0xbcfb9aa8	-0.030713394
78	0xbe34ce4a	-0.17656818
79	0xbe4be960	-0.19913244
80	0xbd8345ac	-0.06409773
81	0xbd2af78d	-0.04173999
82	0xbd5ab682	-0.05339671
83	0xbe56786a	-0.20944372
84	0x3d8148b3	0.063126944
85	0xbe2b437e	-0.16724965
86	0xbea8ca95	-0.32967058
87	0x3dcc3581	0.099711426
88	0xbe83119a	-0.25599366
89	0x3e337e30	0.17528605
90	0xbe323a11	-0.17404963
91	0xbee244e3	-0.4419318
92	0xbeac2b81	-0.3362694
93	0xbdb5cefa	-0.08877368
94	0xbeb66794	-0.356259
95	0xbd6d13fa	-0.05788038
96	0x3e50caa3	0.203898
97	0xbe415bd7	-0.1888269
98	0xbe4d5f39	-0.20055856
99	0x3dfe3b56	0.12413661
100	0xbdf655c8	-0.1202808
101	0xbc2472c0	-0.010037124
102	0xbd8ef0a8	-0.06979495
103	0xbaeb7380	-0.0017963499
104	0xbe1d863e	-0.1538324
105	0xbe06aec4	-0.13152605
106	0x3e491133	0.19635467
107	0x3e4e6e8b	0.20159356
108	0x3dbb61ea	0.09149535
109	0xbc923760	-0.01784867
110	0xbd8b6ee2	-0.068082586
111	0xbda3ad78	-0.07992071
112	0x3d58ea49	0.052957807
113	0x3dec4e40	0.115383625
114	0x3ecac8ca	0.39606315
115	0x3e0dfb92	0.13865498
116	0x3d9053f0	0.0704726
117	0xba97e382	-0.0011588188
118	0xbe6446a6	-0.22292575
119	0xbdd7df81	-0.10540677
120	0xbc9bda00	-0.019024849
121	0xbcdfd8f0	-0.027325124
122	0x3e276497	0.16346966
123	0xbd86f968	-0.06590539
124	0xbe137eec	-0.14403886
125	0xbe21d345	-0.15803249
126	0xbe0e5f33	-0.13903503
127	0xbe04f350	-0.12983441
128	0xbd948f70	-0.07253921
129	0x3c135110	0.008991495
130	0xbe41412e	-0.1887252
131	0x3e51da15	0.20493348
132	0xbe2d8ee9	-0.16949047
133	0xbe52958a	-0.20564857
134	0x3d040430	0.032230556
135	0xbdc31020	-0.0952456
136	0x3dcdad06	0.10042767
137	0x3e09fb4d	0.1347477
138	0xbe3410d5	-0.17584546
139	0xbd08232c	-0.033236668
140	0xbe19627d	-0.14978977
141	0x3d834d4e	0.06411229
142	0xbe099c02	-0.13438419
143	0xbe5256b3	-0.20540886
144	0xbe63df64	-0.22253186
145	0x3dcf0ece	0.10110246
146	0xbdbb44c8	-0.09143978
147	0xbeac0d52	-0.33603913
148	0x3ca4364a	0.020045418
149	0x3dd5052a	0.104013756
150	0xbd86fbd8	-0.06591004
151	0xbd8d1d8a	-0.068904
152	0xbdcac40d	-0.09900675
153	0x3da91ab6	0.08257048
154	0x3b370900	0.0027928948
155	0x3de8583a	0.11344953
156	0x3db2957a	0.08719917
157	0xbc833ea0	-0.016021073
158	0xbd88bd9a	-0.06676789
159	0xbdcb1c66	-0.09917526
160	0xbdf33748	-0.118757784
161	0xbe1f4690	-0.15554261
162	0xba6af900	-0.00089634955
163	0xbdc49c79	-0.09600157
164	0xbd805d0c	-0.06267747
165	0x3e027435	0.12739642
166	0x3d443ac4	0.047907606
167	0xbe135bd9	-0.14390506
168	0x3d5047ad	0.050849605
169	0x3e1bee65	0.15227659
170	0x3de09af3	0.10967054
171	0xbdccfe20	-0.10009408
172	0xbe8857bb	-0.26629433
173	0x3e11326a	0.14179388
174	0xbe862f4d	-0.26207963
175	0xbd5f559d	-0.054525007
176	0xbd1e58db	-0.038658958
177	0x3d84c51d	0.06482909
178	0x3e9deb0f	0.30843398
179	0x3ecc6d5c	0.39927185
180	0xbd0366fd	-0.03208064
181	0xbdcbbf8b	-0.09948643
182	0x3e637019	0.2221073
183	0x3cac8517	0.021059556
184	0x3ddbe526	0.10737066
185	0x3da969c2	0.08272125
186	0x3d193634	0.037405208
187	0x3e017c85	0.12645157
188	0xbcb68ec8	-0.02228488
189	0xbd8eea60	-0.06978297
190	0x3d9e8f1e	0.07742141
191	0xbe07b2e0	-0.13251829
192	0xbe188e29	-0.1489798
193	0xbe1b7408	-0.15180981
194	0x3d824489	0.06360728
195	0x3e835449	0.25650242
196	0x3dc18721	0.09449602
197	0x3e19bc20	0.1501317
198	0x3de81ebc	0.11333987
199	0xbc45b638	-0.01206737
200	0x3e2ab46d	0.1667039
201	0x3d885c3a	0.06658216
202	0x3d602704	0.05472471
203	0x3e49a3e9	0.19691433
204	0x3db6445e	0.08899759
205	0xbe25c91a	-0.16189995
206	0x3d53230c	0.051547095
207	0xbe44556d	-0.19173212
208	0x3eea889d	0.45807353
209	0xbe817395	-0.25283495
210	0xbe45516a	-0.19269338
211	0x3dfb9068	0.12283403
212	0xbec672de	-0.38759512
213	0x3dc7b5a7	0.09751444
214	0xbbc5648f	-0.0060239504
215	0xbc67e869	-0.014154532
216	0x3de603bb	0.1123118
217	0xbc5611c1	-0.013065756
218	0xbe2bd45d	-0.16780229
219	0x3e54b3f9	0.20771779
220	0x3dffe3e1	0.12494636
221	0xbe3ca336	-0.18421635
222	0xbd8351ac	-0.06412062
223	0x3c14e129	0.0090868855
224	0x3cbb9a67	0.022900773
225	0x3e3a0fbe	0.18170068
226	0x3d793a0d	0.060846377
227	0x3d816c12	0.06319441
228	0xbe781b86	-0.2422925
229	0xbdee7f84	-0.116454154
230	0xbeee17d7	-0.46502563
231	0xbd7ac2ab	-0.061220806
232	0x3e43aa14	0.19107848
233	0x3defb0f1	0.11703671
234	0x3d6b4453	0.057438206
235	0xbd132508	-0.035923988
236	0x3dc8f947	0.09813171
237	0xbe2c6592	-0.16835621
238	0x3e3594cc	0.17732543
239	0xbd99a16c	-0.07501492
240	0x3de4f360	0.111792326
241	0x3dd2da14	0.10295501
242	0xbd8b1d02	-0.06792642
243	0x3d5ddf8d	0.054168273
244	0xbdd79625	-0.10526685
245	0x3d3f20ee	0.046662264
246	0x3daeca02	0.08534624
247	0xbdbbaffb	-0.09164425
248	0xbe11fda8	-0.14256918
249	0xbda8283e	-0.082108006
250	0xbdd81652	-0.10551132
251	0x3cd61ff0	0.026138276
252	0xbdbf2ec8	-0.09335095
253	0xbdea947b	-0.11454102
254	0x3dd43faa	0.103637055
255	0xbddcc850	-0.10780394
